…
Cannot load image "/home/tartanauv/catkin_ws/src/darknet_ros/darknet/data/labels/121_7.png"
Cannot load image "/home/tartanauv/catkin_ws/src/darknet_ros/darknet/data/labels/122_7.png"
Cannot load image "/home/tartanauv/catkin_ws/src/darknet_ros/darknet/data/labels/123_7.png"
Cannot load image "/home/tartanauv/catkin_ws/src/darknet_ros/darknet/data/labels/124_7.png"
Cannot load image "/home/tartanauv/catkin_ws/src/darknet_ros/darknet/data/labels/125_7.png"
Cannot load image "/home/tartanauv/catkin_ws/src/darknet_ros/darknet/data/labels/126_7.png"
layer     filters    size              input                output
    0 conv     16  3 x 3 / 1   416 x 416 x   3   ->   416 x 416 x  16  0.150 BFLOPs
    1 max          2 x 2 / 2   416 x 416 x  16   ->   208 x 208 x  16
    2 conv     32  3 x 3 / 1   208 x 208 x  16   ->   208 x 208 x  32  0.399 BFLOPs
    3 max          2 x 2 / 2   208 x 208 x  32   ->   104 x 104 x  32
    4 conv     64  3 x 3 / 1   104 x 104 x  32   ->   104 x 104 x  64  0.399 BFLOPs
    5 max          2 x 2 / 2   104 x 104 x  64   ->    52 x  52 x  64
    6 conv    128  3 x 3 / 1    52 x  52 x  64   ->    52 x  52 x 128  0.399 BFLOPs
    7 max          2 x 2 / 2    52 x  52 x 128   ->    26 x  26 x 128
    8 conv    256  3 x 3 / 1    26 x  26 x 128   ->    26 x  26 x 256  0.399 BFLOPs
    9 max          2 x 2 / 2    26 x  26 x 256   ->    13 x  13 x 256
   10 conv    512  3 x 3 / 1    13 x  13 x 256   ->    13 x  13 x 512  0.399 BFLOPs
   11 max          2 x 2 / 1    13 x  13 x 512   ->    13 x  13 x 512
   12 conv   1024  3 x 3 / 1    13 x  13 x 512   ->    13 x  13 x1024  1.595 BFLOPs
   13 conv    256  1 x 1 / 1    13 x  13 x1024   ->    13 x  13 x 256  0.089 BFLOPs
   14 conv    512  3 x 3 / 1    13 x  13 x 256   ->    13 x  13 x 512  0.399 BFLOPs
   15 conv     27  1 x 1 / 1    13 x  13 x 512   ->    13 x  13 x  27  0.005 BFLOPs
   16 detection
   17 route  13
   18 conv    128  1 x 1 / 1    13 x  13 x 256   ->    13 x  13 x 128  0.011 BFLOPs
   19 upsample            2x    13 x  13 x 128   ->    26 x  26 x 128
   20 route  19 8
   21 conv    256  3 x 3 / 1    26 x  26 x 384   ->    26 x  26 x 256  1.196 BFLOPs
   22 conv     27  1 x 1 / 1    26 x  26 x 256   ->    26 x  26 x  27  0.009 BFLOPs
   23 detection
Loading weights from /home/tartanauv/catkin_ws/src/darknet_ros/darknet_ros/yolo_network_config/weights/tartanauv-yolov3-tiny_970000.weights...[0m[ INFO] [1564768298.698304045]: [YoloObjectDetector] Node started.[0m
[0m[ INFO] [1564768298.715534759]: [YoloObjectDetector] Xserver is running.[0m
[0m[ INFO] [1564768298.717488514]: [YoloObjectDetector] init().[0m
…
